saved_model2.tflite (tflite, 310576 bytes, 14 tensors)

model/convoluton_1/BiasAdd/ReadVariableOp f4 [16]
0	0x3e12548f	0.14290069
1	0xbf6fee9c	-0.93723464
2	0x3f912755	1.1340128
3	0xbfdc8ff3	-1.723143
4	0xbcf7c2d9	-0.030244278
5	0x3b5f7b0b	0.003410044
6	0xbed420f6	-0.41431397
7	0xbd487be4	-0.048946276
8	0x3ebd0dbe	0.36924547
9	0x3e7e6c93	0.24846105
10	0x3efe6e69	0.4969361
11	0xbd9727aa	-0.07380612
12	0xbe558883	-0.20852856
13	0xbdacf096	-0.084443256
14	0xbe82840c	-0.2549137
15	0x3d8ba0cd	0.0681778

model/convolution_6/BiasAdd/ReadVariableOp f4 [64]
0	0xbd03e937	-0.032204833
1	0x3d113b3e	0.03545689
2	0xbd2042f8	-0.039126366
3	0x3cfc8f7d	0.03083014
4	0xbe4baf7e	-0.19891164
5	0xbd838ee2	-0.06423737
6	0xbd96424c	-0.07336864
7	0xbd9f2188	-0.077700675
8	0xbe8dfd06	-0.27732104
9	0xbd081bd3	-0.03322966
10	0xbcf65a48	-0.030072346
11	0xbd2e0c76	-0.042492352
12	0xbe023e0f	-0.12718986
13	0xbd80d967	-0.06291466
14	0xbc92e765	-0.017932603
15	0xbd911e48	-0.07085854
16	0x3d8b7336	0.06809084
17	0xbdc55d09	-0.09636886
18	0xbcf6ee7b	-0.030143013
19	0x3dab44d2	0.08362736
20	0xbd018d37	-0.031628814
21	0xbcd76e0f	-0.026297597
22	0xbe1f509c	-0.15558094
23	0xbcdff6fb	-0.02733945
24	0xbd542bbd	-0.051799525
25	0xbdb1bbc0	-0.086783886
26	0xbd3d3103	-0.04618932
27	0xbe00df9e	-0.12585303
28	0xbdb2825e	-0.08716272
29	0xbe42f1b1	-0.1903751
30	0xbe5d6923	-0.21622138
31	0xbe77c968	-0.24197924
32	0xbe4b179c	-0.19833225
33	0xbdeb96a2	-0.1150334
34	0xbddb77a2	-0.107161775
35	0xbd5c865c	-0.053839073
36	0xbd86c1bc	-0.06579921
37	0x3e47d664	0.19515377
38	0xbdebbd42	-0.115107074
39	0xbce42d4f	-0.027853636
40	0xbd258583	-0.04041053
41	0xbe7e7817	-0.24850498
42	0xbe5e8858	-0.21731699
43	0xbea3855d	-0.31937686
44	0xbda6e5a2	-0.08149268
45	0xbda5a068	-0.08087236
46	0xbdaff077	-0.08590787
47	0xbcebeec2	-0.028800372
48	0xbd890932	-0.06691207
49	0xbd8fba82	-0.070179954
50	0xbe33a801	-0.17544557
51	0xbde27b03	-0.11058619
52	0xbd867f4c	-0.06567249
53	0xbd6cf618	-0.05785188
54	0xbd0a511e	-0.033768766
55	0xbe2710ed	-0.1631505
56	0xbc1e6325	-0.009667193
57	0x3decc394	0.11560741
58	0xbcfdb096	-0.030967992
59	0xbd64cc97	-0.055859175
60	0xbe245d94	-0.16051322
61	0xbd9786a6	-0.07398729
62	0xbd83943b	-0.06424757
63	0xbd0c870e	-0.034308486

model/convolution_4/BiasAdd/ReadVariableOp f4 [32]
0	0xbe5211f2	-0.20514658
1	0xbec81c73	-0.39084205
2	0x3e53521a	0.20636788
3	0x3d483e20	0.048887372
4	0x3e8dcac6	0.27693766
5	0xbe7405e1	-0.23830368
6	0x3f7b32ca	0.9812437
7	0xbec6c70a	-0.3882373
8	0x3df79e42	0.12090732
9	0xbd676b55	-0.056498844
10	0xbe049308	-0.12946713
11	0x3bd1c80a	0.0064020203
12	0xbe1dcc26	-0.15409908
13	0xbceac01e	-0.028656062
14	0xbbc3fc90	-0.0059810355
15	0xbdfaa855	-0.12239138
16	0xbefe17f0	-0.49627638
17	0xbd96e024	-0.0736697
18	0xbf341427	-0.7034325
19	0xbe3e63c9	-0.18592753
20	0xbe781740	-0.24227619
21	0xbdcdab6d	-0.100424625
22	0xbc2d738c	-0.010586631
23	0xbf135d11	-0.57563883
24	0x3def765c	0.11692497
25	0x3f64a88c	0.8931968
26	0xbd0f8aeb	-0.035044592
27	0xbdf1d765	-0.11808661
28	0x3d10a3ef	0.03531259
29	0xbd52c5fa	-0.051458336
30	0xbdd829de	-0.105548605
31	0xbe869de8	-0.26292348

model/convolution_3/BiasAdd/ReadVariableOp f4 [32]
0	0xbe16dedd	-0.14733453
1	0xbed042f2	-0.40676075
2	0xbdd24703	-0.10267451
3	0xbf25b641	-0.6473122
4	0xbeee7cfa	-0.46579725
5	0xbd1dfeec	-0.03857319
6	0xbcc70d5d	-0.024298364
7	0xbc876462	-0.016527358
8	0xbd36cb89	-0.0446277
9	0xbe82619c	-0.25465095
10	0x3c69aaa5	0.014261876
11	0xbcbe1cc0	-0.023207068
12	0xbe7c9efd	-0.24670024
13	0xbe260510	-0.16212869
14	0xbd57924d	-0.052629758
15	0xbea0dd5e	-0.3141889
16	0xbd1b1595	-0.03786238
17	0xbe3ebab2	-0.18625906
18	0xbe7b81f5	-0.24561293
19	0xbe680bb8	-0.2266072
20	0xbeae843b	-0.3408526
21	0xbf4b49e2	-0.7940961
22	0xbd77703a	-0.060409762
23	0xbe63b943	-0.2223864
24	0xbde47c42	-0.11156513
25	0xbd158f3d	-0.036513556
26	0xbd0b3b11	-0.033991877
27	0xbd4e85cc	-0.050420567
28	0xbebeaf15	-0.37242952
29	0xbaac9998	-0.0013168333
30	0xbe1e7b9c	-0.1547684
31	0xbe28bc23	-0.16478018

model/convolution_2/BiasAdd/ReadVariableOp f4 [16]
0	0xbda79506	-0.08182721
1	0xbe0b94cc	-0.1363098
2	0xbe129ef3	-0.14318447
3	0x3fc2f54f	1.5231112
4	0xbe63d3b0	-0.22248721
5	0xbce24bee	-0.027624097
6	0xbda66acb	-0.08125838
7	0x3e2e3947	0.17014037
8	0xbd4f0879	-0.05054519
9	0x3d48b67e	0.049002163
10	0xbe9a4afa	-0.30135328
11	0x3d6b3b0c	0.05742936
12	0xbe0c181d	-0.13681073
13	0xbe05ce90	-0.13067079
14	0xbe65a3e7	-0.22425805
15	0x3e58c7f2	0.21170023

model/convolition_5/BiasAdd/ReadVariableOp f4 [64]
0	0xbde2a525	-0.11066655
1	0xbcc2b8f1	-0.023769828
2	0xbec93b94	-0.39303267
3	0xbcfcec2a	-0.03087433
4	0x3e7a8c5e	0.24467608
5	0xbdb70374	-0.089362055
6	0xbe19136b	-0.14948814
7	0xbdbe00d3	-0.09277501
8	0xbdf69ebc	-0.12041995
9	0xbd891807	-0.06694036
10	0x3d4434dc	0.047901973
11	0xbe104405	-0.14088447
12	0xbe3637f1	-0.17794777
13	0xbd2356af	-0.03987759
14	0xbe3cd49b	-0.18440478
15	0xbe6be30a	-0.23035827
16	0xbd89093b	-0.06691214
17	0xbd1e2b87	-0.03861573
18	0xbde05200	-0.1095314
19	0xbe6452b5	-0.22297175
20	0x3e06fd67	0.13182603
21	0xbd900723	-0.07032611
22	0xbe132b68	-0.14372027
23	0xbdca6167	-0.09881859
24	0x3f0e3024	0.55542207
25	0x3e842b32	0.25814205
26	0x3e2d0423	0.1689611
27	0x3eb5af3b	0.35485253
28	0xbddbf6ce	-0.10740434
29	0x3c9f38a2	0.019436184
30	0xbe100827	-0.1406561
31	0x3f1b5eb8	0.60691404
32	0xbe50d393	-0.20393209
33	0xbe859d98	-0.26096797
34	0xbe027aec	-0.12742203
35	0x3ec76699	0.38945463
36	0xbe06711c	-0.13129085
37	0xbe024bfb	-0.12724297
38	0xbe1666e5	-0.14687689
39	0xbdf6ed03	-0.12056925
40	0x3e2fa8eb	0.17154281
41	0xbe4ba4a1	-0.1988702
42	0xbdd429ac	-0.10359511
43	0xbdd7ec27	-0.10543089
44	0x3e3ca13d	0.18420883
45	0x3e3a54ea	0.18196455
46	0x3db9f484	0.09079841
47	0xbe161c8b	-0.14659326
48	0xbf1f2030	-0.6215849
49	0xbdcaa789	-0.09895236
50	0xbe28ebed	-0.16496249
51	0xbdb9b67b	-0.090680085
52	0x3e3add3d	0.18248458
53	0x3ec6065e	0.38676733
54	0x3be75d68	0.0070606954
55	0xbc9fedf1	-0.019522639
56	0xbe36fe07	-0.17870341
57	0xbd64470a	-0.05573181
58	0xbd4988f4	-0.049202874
59	0x3e875418	0.26431346
60	0xbecaa575	-0.3957936
61	0xbed06053	-0.4069849
62	0xbd66841a	-0.056278326
63	0x3c489f8f	0.012245073

model/dense1/MatMul f4 [32, 128]
0	0xbe01d8f2	-0.12680414
1	0xbdcc9d17	-0.099909
2	0xbd5a8b1d	-0.053355325
3	0xbd65c82d	-0.056099106
4	0xbd98aaf1	-0.074544795
5	0x3cb0fc9e	0.021604832
6	0x3d508317	0.050906267
7	0xbdb51f70	-0.08843887
8	0xbe711680	-0.2354374
9	0x3dd847b3	0.105605505
10	0xbd8b5a6f	-0.06804358
11	0x3d9ed68f	0.077557676
12	0x3db8f62a	0.09031327
13	0x3e085342	0.1331301
14	0xbd0c3e0e	-0.034238867
15	0x3e0a519b	0.13507693
16	0xbdb39b04	-0.08769801
17	0xbd84b278	-0.06479353
18	0x3c120033	0.00891118
19	0x3d21c650	0.039495766
20	0xbde23db5	-0.11046926
21	0xbabffaeb	-0.0014646923
22	0x3da03fc9	0.07824666
23	0x3dc75c79	0.09734435
24	0xbd503a06	-0.050836585
25	0xbbd13c7e	-0.006385385
26	0x3dfc7887	0.12327676
27	0xbe3030d8	-0.17206132
28	0xbd8092c1	-0.06277991
29	0xbc862449	-0.016374724
30	0xbc98af75	-0.018638352
31	0x3d7e4831	0.062080566
32	0xbb6499a5	-0.0034881618
33	0x3d13a74f	0.03604823
34	0x3cf3439b	0.029695323
35	0xbd9ad496	-0.07560079
36	0x3d32e7ca	0.043678083
37	0x3d2bdeda	0.041960575
38	0x3cc4dccc	0.024031065
39	0x3e074b18	0.1321224
40	0xbddf0cb2	-0.10891093
41	0x3dc40859	0.09571905
42	0xbc2e24a2	-0.010628851
43	0x3e539ceb	0.20665328
44	0xbde821c8	-0.11334568
45	0xbe29cd19	-0.16582145
46	0xbe34c850	-0.17654538
47	0xbdaa31e0	-0.08310294
48	0xbbceefc1	-0.006315202
49	0xbe0ae09d	-0.13562246
50	0xbadd9bc9	-0.001690739
51	0x3d245695	0.040121634
52	0x3b3a37b7	0.0028414556
53	0xbe0d424c	-0.13794822
54	0x3e37e95a	0.1796011
55	0x3d8a0007	0.067382865
56	0xbdaa4b7d	-0.083151795
57	0x3aac33f6	0.0013138044
58	0xbcd2864f	-0.025698809
59	0x3db84552	0.08997597
60	0x3d843ea6	0.06457262
61	0xbd925332	-0.071447745
62	0xbe444c8e	-0.19169828
63	0xbe13474b	-0.14382665
64	0xbe0a653b	-0.13515179
65	0x3e02492d	0.12723227
66	0xbd244c5f	-0.040111896
67	0xbc9fc402	-0.019502643
68	0xbda1e316	-0.07904641
69	0x3d8c18da	0.068406776
70	0x3dcba4b2	0.099435225
71	0x3d461297	0.048357572
72	0xbdfc5344	-0.12320569
73	0xbd427f74	-0.04748483
74	0x3d51eab0	0.051249206
75	0x3a0205b1	0.00049599545
76	0xbe04d496	-0.1297172
77	0xbce5bfc5	-0.028045544
78	0xbdb31a95	-0.087453045
79	0x3e14a9ba	0.1451787
80	0xbc3d0c7c	-0.011538621
81	0xbe05f3a7	-0.13081227
82	0xbe04016b	-0.12891166
83	0xbd26a6be	-0.04068636
84	0x3d960512	0.07325186
85	0xbdec1835	-0.115280546
86	0xbd66553b	-0.056233626
87	0x3deea6a8	0.11652881
88	0xbe1e6a13	-0.15470152
89	0x3d5eeb2c	0.054423496
90	0x3c24cfd2	0.010059314
91	0x3dc4427a	0.09582992
92	0xbdaa415a	-0.08313246
93	0xbe15265a	-0.14565411
94	0xbe9d422a	-0.30714542
95	0x3d89960a	0.06718071
96	0x3d237e53	0.039915394
97	0x3e079906	0.13241968
98	0x3d32e6e0	0.04367721
99	0xbe3f93b3	-0.18708687
100	0xbd980049	-0.074219294
101	0xbd2ee1e3	-0.04269589
102	0xbe8e52ed	-0.27797642
103	0xbdc7e811	-0.0976106
104	0xbd218133	-0.039429855
105	0xbd6da778	-0.05802104
106	0xbd654326	-0.05597224
107	0x3eaeb5bd	0.3412303
108	0x3cccb835	0.02499018
109	0x3bf46a05	0.0074589276
110	0xbd9314de	-0.071817145
111	0x3e7817ba	0.24227801
112	0xbd765fb9	-0.060149882
113	0xbd8719d7	-0.065967254
114	0xbcf4897e	-0.029850718
115	0x3c0b6c9c	0.008509781
116	0xbd0c8a2e	-0.034311466
117	0x3e05d93c	0.1307115
118	0xbd8ed35e	-0.06973909
119	0xbb707410	-0.0036690272
120	0x3e0e931f	0.1392331
121	0x3c9ee340	0.01939547
122	0xbd19f6be	-0.037588827
123	0x3d9bb347	0.07602554
124	0xbe2a2909	-0.16617216
125	0x3dcea685	0.10090355
126	0xbc57821a	-0.013153577
127	0x3df219d2	0.11821331
128	0x3c17ecbf	0.009272753
129	0x3ca0b3bd	0.019616956
130	0xbdf011b1	-0.11722124
131	0xbcdc78dd	-0.0269131
132	0xbcdbdbe9	-0.02683826
133	0x3c0735ae	0.008252544
134	0xbe79d6fc	-0.24398416
135	0x3a3d5c5e	0.00072235416
136	0x3e1e4f4d	0.15459938
137	0x3caa4295	0.020783702
138	0xbe14fd20	-0.14549685
139	0x3cc6d664	0.024272151
140	0xbe428dc2	-0.18999389
141	0xbdfeb3ae	-0.12436615
142	0xbcfdf9e2	-0.031002942
143	0x3d982789	0.07429416
144	0x3d15002f	0.03637713
145	0xbe8789e4	-0.2647239
146	0xbe2cb829	-0.16867127
147	0xbe0bce49	-0.1365291
148	0x3d6ef0e7	0.05833521
149	0x3b64af08	0.0034894366
150	0x3e4309ac	0.19046658
151	0xbe0d692e	-0.13809654
152	0xbdb8585d	-0.09001229
153	0xbe7ed6f1	-0.24886681
154	0xbd85ece6	-0.065393254
155	0x3cdebe09	0.027190225
156	0x3e208206	0.156746
157	0x3e1c8bd9	0.15287723
158	0xbc7e7c6c	-0.015532594
159	0x3d8dfb4d	0.069326974
160	0xbd20e96e	-0.039285116
161	0x3e381714	0.17977554
162	0xbc44c3e4	-0.012009595
163	0x3d2e5f70	0.042571485
164	0xbd980ef5	-0.07424728
165	0xbbdcce32	-0.0067384476
166	0xbd980890	-0.07423508
167	0x3e22e071	0.1590593
168	0xbd68c295	-0.056826193
169	0x3dca2b1f	0.09871506
170	0x3cce32f4	0.02517078
171	0x3debf9bb	0.11522242
172	0x3d7841b7	0.060609546
173	0x3e482e67	0.19548951
174	0x3de82381	0.11334897
175	0x3d92a694	0.071606785
176	0xbd6deae5	-0.05808534
177	0x3df0e53c	0.11762473
178	0x3d782a90	0.060587466
179	0x3e46a1d6	0.19397673
180	0x3d445f3f	0.047942396
181	0xbdb37bb9	-0.087638326
182	0x3e2b791b	0.16745417
183	0xbddbc23b	-0.10730406
184	0xbe0a2a31	-0.13492657
185	0x3bfe5a41	0.007762224
186	0x3ce85caf	0.028364507
187	0xbe466fdf	-0.19378613
188	0x3d8227f2	0.06355275
189	0xbd9326aa	-0.07185109
190	0x3db44585	0.08802322
191	0xbe0715a1	-0.13191845
192	0x3dd38972	0.1032895
193	0xbdb336cf	-0.08750688
194	0x3e107045	0.14105327
195	0x3e1dd052	0.15411499
196	0xbdd1b4eb	-0.102395855
197	0x3d919d17	0.07110041
198	0x3e7b92f8	0.24567783
199	0xbd9a7159	-0.075411506
200	0x3e7b8c85	0.24565323
201	0xbd1c33c2	-0.038135298
202	0xbd313366	-0.043261908
203	0x3d3f511b	0.046708208
204	0x3d865462	0.065590635
205	0x3ddf4dc8	0.109035075
206	0xbb789816	-0.0037932447
207	0x3e04ea52	0.12980011
208	0x3c0ba330	0.008522794
209	0x3ce8cff0	0.028419465
210	0x3de3f6e9	0.11131079
211	0x3e04ac28	0.12956297
212	0x3e1ddf12	0.15417126
213	0xbe0f565d	-0.13997789
214	0x3de33432	0.1109394
215	0xbe0f4146	-0.13989744
216	0x3d9f126c	0.077671856
217	0x3e468160	0.1938529
218	0x3d0d9824	0.03456892
219	0xbd3efdd3	-0.046628784
220	0xbcf012c0	-0.029305816
221	0x3da8a484	0.08234504
222	0xbd5e3140	-0.054246187
223	0xbca8b3dc	-0.020593576
224	0x3c5dbeac	0.013534229
225	0x3dd14eab	0.10220083
226	0xbe1c10bd	-0.1524076
227	0x3def10a4	0.11673096
228	0x3dcfe81c	0.10151693
229	0x3c2abd8f	0.010421171
230	0xbe47b8bc	-0.19504064
231	0x3ddff47b	0.10935303
232	0x3dd8324d	0.10556469
233	0x3ca27929	0.019833164
234	0x3c75b5af	0.01499693
235	0xbd37034b	-0.044680875
236	0xbe7c6c00	-0.24650574
237	0x3dc3241c	0.09528372
238	0x3e3bc5a2	0.1833711
239	0xbdf4fead	-0.11962638
240	0xbee6e040	-0.45092964
241	0xbe57a20c	-0.2105791
242	0x3c813b90	0.015775472
243	0x3e7e52b9	0.24836244
244	0xbe60fc32	-0.21971205
245	0xbe121501	-0.14265825
246	0xbe33103d	-0.17486663
247	0x3e069de0	0.13146162
248	0x3df76ef9	0.12081713
249	0xbd3473ae	-0.044055633
250	0x3d7085ca	0.05872134
251	0xbe220c6e	-0.15825054
252	0xbe6479a7	-0.22312032
253	0x3e3e88e3	0.18606906
254	0x3d87dcdd	0.06633923
255	0x3d2cef8b	0.042220633

model/output/MatMul f4 [1, 32]
0	0x3bdd9bf4	0.006762976
1	0x3ba6c786	0.005089703
2	0xbb347ac4	-0.0027538994
3	0xbbfa72bb	-0.0076430715
4	0xba2b3bd8	-0.000653205
5	0xbc4c02fa	-0.012451882
6	0xbb962084	-0.004581513
7	0x3cabd0b9	0.02097355
8	0xbb5feeb4	-0.0034169378
9	0x3c8cdb46	0.017194401
10	0xbb1648e1	-0.0022931623
11	0xb9aa0252	-0.00032426656
12	0x3d4c85e2	0.049932368
13	0xbc6832fe	-0.014172314
14	0x3c7ee130	0.015556619
15	0xbc9b951c	-0.018992
16	0x3c888e68	0.016669467
17	0x3a5c1550	0.000839551
18	0xb9b8a434	-0.00035217556
19	0xbbbcf3ea	-0.0057663815
20	0xb99413dc	-0.00028243556
21	0x3ce8e8f6	0.028431397
22	0x3c6b128d	0.014347685
23	0x3c1f8881	0.009737135
24	0xbb004a82	-0.001957566
25	0xbb4a3c2a	-0.0030858614
26	0x3b317a36	0.00270809
27	0x3c8d5f3d	0.017257327
28	0xbd238d5d	-0.039929736
29	0xbc2a161c	-0.010381248
30	0x3b7530d7	0.0037413144
31	0xbd8c7d94	-0.068598896

model/convoluton_1/Conv2D f4 [16, 3, 3, 3]
0	0xbe78ea04	-0.2430802
1	0xbd0881cc	-0.03332691
2	0xbe3673b2	-0.17817572
3	0x3daf8a05	0.08571247
4	0x3d6f1501	0.05836964
5	0xbdb79ba0	-0.0896523
6	0x3d089589	0.033345733
7	0x3d82b2aa	0.06381734
8	0xbc9d9b69	-0.019239144
9	0xbe6ce7e3	-0.23135333
10	0xbdfb9202	-0.12283708
11	0xbe48a4c6	-0.19594106
12	0xbd2c99b4	-0.04213877
13	0xbe444607	-0.19167338
14	0xbe645178	-0.22296703
15	0xbe892f04	-0.26793683
16	0xbe2c9315	-0.16852982
17	0xbe42df0e	-0.19030401
18	0x3cf8632f	0.030320732
19	0x3d8a16e2	0.06742646
20	0xbd3056d0	-0.04305154
21	0xbda4bdd2	-0.08044018
22	0xbe242da0	-0.1603303
23	0xbdef16f8	-0.11674303
24	0xbe6e6e3c	-0.23284239
25	0xbd7ca22e	-0.061678104
26	0xbca48bc4	-0.020086177
27	0xbb59894c	-0.0033193408
28	0xbe4095fe	-0.18807217
29	0x3d9a7d2b	0.07543405
30	0x3dca4c6e	0.09877859
31	0x3d3d47bc	0.04621099
32	0x3e0b415c	0.13599151
33	0xbe8da579	-0.27665308
34	0x3c5a91c5	0.013340418
35	0xbe650339	-0.2236451
36	0xbd37e593	-0.044896673
37	0x3ccf8424	0.025331564
38	0x3d414a47	0.047189977
39	0xbe183f66	-0.14867935
40	0xbd9c74c9	-0.076394625
41	0x3e0a3d3a	0.13499919
42	0xbd838115	-0.06421105
43	0xbdc7ed52	-0.09762062
44	0xbad6c813	-0.0016386531
45	0xbe71b7b2	-0.2360523
46	0xbdad95f2	-0.084758654
47	0xbcd2eed7	-0.025748653
48	0xbd9b4a29	-0.07582504
49	0x3d174b80	0.036937237
50	0x3d06ecea	0.032940783
51	0xbe5ea537	-0.21742712
52	0x3d99ec3f	0.075157635
53	0xbdfca7f6	-0.123367235
54	0xbeb308d0	-0.3496766
55	0xbe2a5d01	-0.1663704
56	0xbe9eb274	-0.30995524
57	0xbf226526	-0.6343559
58	0xbe3a03b6	-0.18165478
59	0xbea1dae1	-0.31612304
60	0xbe9ef9d0	-0.31049967
61	0xbcb3d3f0	-0.021951646
62	0x3db56f12	0.088590756
63	0x3db038fa	0.086046174
64	0xbcb22823	-0.021747654
65	0xbcd56900	-0.026051044
66	0x3cd7fd79	0.026365982
67	0x3d934797	0.07191389
68	0xbdbb711a	-0.09152432
69	0xbe9a5211	-0.30140737
70	0xbe68d4df	-0.22737454
71	0xbe0886b8	-0.13332641
72	0x3d14a58b	0.036290687
73	0x3d86a57f	0.065745346
74	0xbe82274e	-0.25420612
75	0xbe95ad56	-0.29233807
76	0xbeecd233	-0.4625412
77	0xbe951ca5	-0.29123417
78	0x3dbd821b	0.09253331
79	0xbe499755	-0.19686635
80	0xbe102460	-0.14076376
81	0xbe960b57	-0.29305527
82	0x3c9a5f80	0.018844366
83	0xbce6d093	-0.028175628
84	0xbe9b1813	-0.30291805
85	0x3e18b92f	0.14914392
86	0x3e06097b	0.13089554
87	0xbeb41a8a	-0.35176498
88	0x3d57ed26	0.052716397
89	0xbcf11be9	-0.029432254
90	0xbdc2671b	-0.09492322
91	0x3d637113	0.055527758
92	0x3e709db4	0.23497659
93	0x3d8ea78e	0.06965552
94	0x3e8c4b29	0.27401093
95	0x3e5a7b61	0.21336128
96	0xbdd29b82	-0.10283567
97	0x3e347003	0.17620854
98	0x3e28079d	0.16409154
99	0x3db5faaa	0.08885701
100	0x3b72bc02	0.003703833
101	0xbc917b5c	-0.017759018
102	0xbd2dd78a	-0.042441882
103	0x3e453fa3	0.19262557
104	0x3e14b442	0.14521888
105	0x3e021ff5	0.12707503
106	0x3e5fdf95	0.21862634
107	0x3e59de6e	0.21276256
108	0x3e27891c	0.16360897
109	0x3de0d344	0.10977796
110	0x3dd52d2f	0.10409009
111	0xbdcf10cd	-0.10110626
112	0xbe7f67a2	-0.24941877
113	0xbe90b983	-0.28266534
114	0xbdff1a16	-0.124561474
115	0xbdbe0bb3	-0.09279575
116	0x3d15b976	0.036553822
117	0xbe0fb4a1	-0.14033748
118	0xbe686e05	-0.22698219
119	0xbe0414d8	-0.12898576
120	0xbcfe6dea	-0.03105827
121	0xbe8fb2f4	-0.28066218
122	0xbdc00ad5	-0.09377066
123	0xbdf9cfb6	-0.12197821
124	0xbe46fc57	-0.19432198
125	0xbe6028a7	-0.21890508
126	0xbe827d9a	-0.2548645
127	0xbe89fdda	-0.26951486
128	0xbdd4284b	-0.10359248
129	0x3c85f799	0.016353415
130	0x3b64f3a6	0.0034935265
131	0xbc6fd991	-0.014639274
132	0xbde33973	-0.11094942
133	0xbcbdd4c3	-0.023172742
134	0x3e3e64b3	0.18593101
135	0x3c1c31aa	0.009533325
136	0xbd991910	-0.074754834
137	0x3c25c6ee	0.010118229
138	0xbe459f77	-0.19299112
139	0xbda3a854	-0.079910904
140	0x3e0a7f1b	0.1352505
141	0x3d6ac849	0.057319913
142	0xbdff6198	-0.124697864
143	0xbe01ba3c	-0.12668699
144	0xbd43b042	-0.047775514
145	0xbde5a47e	-0.11213015
146	0xbe4bb0a9	-0.19891609
147	0xbdec05e6	-0.115245625
148	0x3dc6fd67	0.097163014
149	0xbdcfb5c6	-0.101420924
150	0xbe12ddd2	-0.1434243
151	0xbe23239b	-0.15931551
152	0xbda008ab	-0.07814153
153	0x3d43a3bd	0.047763575
154	0xbe198a49	-0.14994158
155	0x3d2851fb	0.041093808
156	0xbe191ba9	-0.14951958
157	0x3d2189e1	0.039438132
158	0xbe02b84c	-0.12765616
159	0x3df92253	0.1216475
160	0x3cbdc1d4	0.023163714
161	0x3e13bde8	0.14427912
162	0xbe1963de	-0.14979503
163	0xbd5ed2a2	-0.054400094
164	0xbdcf37d1	-0.10118068
165	0xbe518d84	-0.2046414
166	0x3dae00c3	0.08496239
167	0xbdc7c8b8	-0.09755081
168	0xbebade70	-0.3649783
169	0x3db84031	0.089966185
170	0x3cd90ee3	0.026496356
171	0xbe3b6676	-0.18300804
172	0x3c80c22e	0.015717592
173	0xbdb74185	-0.08948044
174	0xbe8ec273	-0.27882728
175	0x3db4604a	0.08807428
176	0x3de561ac	0.1120027
177	0xbe810ae5	-0.25203624
178	0xbe106b7f	-0.14103507
179	0x3d2cecd8	0.04221806
180	0x3cce529d	0.025185877
181	0xbe546256	-0.20740637
182	0xbcd4d7b0	-0.025981754
183	0x3b89a22b	0.00420024
184	0x3d866721	0.06562639
185	0x3d12323a	0.03569243
186	0xbd7f7904	-0.06237127
187	0xbd4157c9	-0.04720286
188	0xbe00d4f6	-0.12581238
189	0x3cd8b298	0.026452348
190	0xbd1c64ab	-0.038181942
191	0x3c83bd43	0.016081458
192	0xbe6d42c5	-0.23170002
193	0x3b980dee	0.0046403324
194	0xbe91dba8	-0.28487897
195	0xbe714550	-0.23561597
196	0xbd5eab33	-0.054362487
197	0xbde1354a	-0.10996492
198	0x3dab9f24	0.08379963
199	0x3c02effd	0.007991788
200	0x3e01d637	0.12679373
201	0xbe4a6dae	-0.19768402
202	0xbde9b9a0	-0.11412358
203	0xbea58023	-0.32324323
204	0xbd2c4178	-0.042054623
205	0xbe84ee1f	-0.25962922
206	0xbe1c9207	-0.1529008
207	0x3e08fed3	0.13378458
208	0xbd47f0c1	-0.048813585
209	0x3e752870	0.23941207
210	0xbe9fc133	-0.31202087
211	0x3db0a65a	0.08625479
212	0x3cd57b8e	0.026059892
213	0xbe8a33f3	-0.2699276
214	0x3d997358	0.07492703
215	0xbe36df30	-0.17858577
216	0xbe41f0d5	-0.18939526
217	0xbed8b983	-0.42329034
218	0xbea4999e	-0.3214845
219	0xbd2559ce	-0.040368848
220	0xbe5d2bac	-0.21598691
221	0xbe9ecbe4	-0.3101493
222	0x3eaa642c	0.3327955
223	0x3dec4e6b	0.115383945
224	0x3e763c00	0.24046326
225	0xbeaea044	-0.34106648
226	0xbe53e0a6	-0.20691165
227	0x3dee28e2	0.116288915
228	0xbec2349e	-0.3793077
229	0xbf433b5e	-0.7626246
230	0xbe66fc7a	-0.2255725
231	0xbc040f95	-0.008060356
232	0xbe841714	-0.25798857
233	0x3c89f9c3	0.016842728
234	0xbf27b80d	-0.65515214
235	0xbef17a41	-0.47163585
236	0xbed9ac5d	-0.42514315
237	0xbed7181a	-0.42010576
238	0xbeda7492	-0.4266706
239	0xbee89c12	-0.45431572
240	0xbdfae6c2	-0.12251045
241	0xbf0d9d45	-0.553181
242	0xbeb63501	-0.35587314
243	0x3d31d2b6	0.04341384
244	0x3dce1e42	0.10064365
245	0xbd596f04	-0.05308439
246	0x3c781736	0.015142253
247	0x3e402d7a	0.18767348
248	0x3a17c25f	0.00057891564
249	0xbdb91597	-0.09037321
250	0xbe5730b1	-0.21014668
251	0x3ddd0b6d	0.10793195
252	0xbd521b3a	-0.051295497
253	0xbdb3ec3e	-0.08785294
254	0xbe8537b1	-0.26019052
255	0x3dd4d387	0.10391908

model/convolution_2/Conv2D f4 [16, 3, 3, 16]
0	0xbcfa6a77	-0.030568345
1	0x3d475030	0.048660457
2	0xbd60a1c2	-0.054841764
3	0xbc9c7ff6	-0.019103985
4	0x3db87e88	0.09008509
5	0xbc680210	-0.014160648
6	0xbdbb2e0c	-0.09139642
7	0xbdc6977f	-0.09696864
8	0x3e1ec226	0.15503749
9	0xbe31474f	-0.17312358
10	0xbd822ef4	-0.06356612
11	0xbc0ca056	-0.008583149
12	0x3cf038a0	0.029323876
13	0xbd6d87fb	-0.05799101
14	0xbc0b9f3f	-0.008521854
15	0xbe02b39a	-0.12763825
16	0xbd9ea031	-0.07745398
17	0x3d42be12	0.047544546
18	0x3e755c4e	0.23960993
19	0x3da3940c	0.07987222
20	0xbd8159bd	-0.06315944
21	0x3d495feb	0.04916374
22	0x3db63f0b	0.08898743
23	0xbd55a514	-0.052159384
24	0xbde3f61a	-0.111309245
25	0x3dd3da5f	0.10344385
26	0x3eb384bb	0.35062203
27	0xbc005b66	-0.007834291
28	0xbdbc7388	-0.09201723
29	0x3d41f9f7	0.047357526
30	0x3d9ea55e	0.07746385
31	0xbccf107a	-0.025276411
32	0xbd6144c1	-0.05499721
33	0xbd544c52	-0.051830597
34	0x3effe123	0.49976453
35	0xbe1b0a37	-0.15140615
36	0xbd9129f6	-0.070880815
37	0x3d15d4b0	0.036579788
38	0xbdf78190	-0.12085259
39	0xbe1d4623	-0.15358786
40	0xbe46446d	-0.1936204
41	0xbd577e34	-0.05261059
42	0xbe60116b	-0.21881644
43	0x3d4c91ad	0.049943615
44	0xbe0c425b	-0.13697188
45	0xbe52c746	-0.2058383
46	0xbe2e795a	-0.1703848
47	0xbc993d01	-0.018705847
48	0xbe057b72	-0.13035372
49	0xbe5f067c	-0.21779817
50	0xbe505e42	-0.20348457
51	0xbe2a3b77	-0.16624247
52	0xbc859dad	-0.016310537
53	0xbd61fe26	-0.055174015
54	0xbdf5be43	-0.1199918
55	0x39836dad	0.00025067982
56	0xbd808fbf	-0.062774174
57	0x3d835687	0.06412988
58	0x3d995155	0.07486216
59	0x3ddbfb43	0.10741284
60	0x3d24cd4d	0.040234853
61	0xbe09947f	-0.13435553
62	0x3b960ef5	0.0045794197
63	0x3cae28a7	0.021259619
64	0x3d32d371	0.043658677
65	0xbcdd169f	-0.026988326
66	0xbde88bf9	-0.11354823
67	0xbd8d5c96	-0.06902425
68	0xbcb4c375	-0.022065857
69	0x3d93f149	0.07223756
70	0xbdc4d96a	-0.09611781
71	0xbd8459b7	-0.06462424
72	0xbe0fcc67	-0.14042817
73	0x3d8f10a3	0.06985595
74	0xbe089612	-0.13338497
75	0xbe3d1189	-0.1846372
76	0xbceb7b5c	-0.028745346
77	0x3dccd924	0.10002354
78	0x3c349f9c	0.011024382
79	0x3c557252	0.013027744
80	0x3d4a3af0	0.049372613
81	0xbe6640ba	-0.22485629
82	0xbefcfa68	-0.49409795
83	0xbcc74c78	-0.024328455
84	0xbda56f17	-0.08077829
85	0x3d8e3b10	0.06944859
86	0x3d9c9568	0.076456845
87	0x3ca90c8d	0.020635867
88	0x3d4c15f7	0.049825635
89	0x3d028ef0	0.031874597
90	0xbe1ae3a7	-0.15125905
91	0xbd737130	-0.059434116
92	0xbdacff00	-0.08447075
93	0xbe4c9e90	-0.19982362
94	0x3d0ab3b5	0.03386279
95	0x3c69eac1	0.014277161
96	0x3dc091e0	0.094028234
97	0xbe3af771	-0.18258454
98	0xbd1fd262	-0.039018996
99	0xbe0a0cdc	-0.13481468
100	0x3d62339d	0.055225004
101	0xbd781a21	-0.060571793
102	0xbd4730df	-0.04863059
103	0xbda82b98	-0.0821144
104	0x3d770c5c	0.06031452
105	0xbe003f85	-0.12524231
106	0xbf0c765f	-0.5486812
107	0x3c847c56	0.01617257
108	0xbe4b90bc	-0.1987943
109	0xbe5d6c7a	-0.21623412
110	0xbd752d33	-0.05985756
111	0xbdc5d6ed	-0.096601345
112	0x3d7db101	0.061936382
113	0x3b602b7a	0.0034205602
114	0xbcbfd07d	-0.023414845
115	0xbe42e433	-0.19032364
116	0x3d3ed470	0.046589315
117	0xbe21e273	-0.1580904
118	0xbe171a53	-0.14756136
119	0xbda3ea00	-0.08003616
120	0xbd5c5002	-0.05378724
121	0xbdce3594	-0.10068813
122	0xbe7340e5	-0.23755224
123	0xbdbda981	-0.09260846
124	0xbda51915	-0.08061425
125	0x3e10a98c	0.14127177
126	0xbdc0cde7	-0.09414273
127	0xbdefbf43	-0.11706402
128	0x3d699119	0.05702314
129	0xbe86e45c	-0.263461
130	0x3db965b6	0.09052603
131	0xbd22c825	-0.039741654
132	0x3d0025fa	0.031286217
133	0xbcdd77be	-0.027034637
134	0xbe311fe1	-0.17297317
135	0xbe1a4eee	-0.15069172
136	0x3e4756c4	0.19466692
137	0xbc1042f1	-0.008805023
138	0xbe79e902	-0.24405292
139	0xbe124f7b	-0.14288132
140	0xbd024f16	-0.031813703
141	0x3c587f45	0.013213937
142	0xbbb8a2f8	-0.0056346618
143	0xbd61d37e	-0.055133335
144	0xbbb3e50c	-0.005489951
145	0xbc5df5e2	-0.013547393
146	0xbd427278	-0.047472447
147	0xbd60379a	-0.054740526
148	0x3dc747e9	0.09730513
149	0x3dbfa38d	0.09357367
150	0x3da4ed32	0.08053054
151	0xbda5033c	-0.080572575
152	0xbdcd60d3	-0.100282334
153	0xbd39cd91	-0.04536206
154	0xbcf90f8a	-0.030402917
155	0xbd91b37e	-0.071143135
156	0x3d9fa85d	0.077957846
157	0xbe0e105a	-0.13873425
158	0xbddcf31f	-0.10788559
159	0x3da6c9f6	0.0814399
160	0x3dba2324	0.09088734
161	0xbd4b3435	-0.049610335
162	0xbe98728e	-0.29774898
163	0xbc8645e8	-0.016390756
164	0x3e0b3ae8	0.1359669
165	0xbb1ec1d7	-0.0024224424
166	0xbe321d8c	-0.17394084
167	0xbdb4648d	-0.08808241
168	0xbf067a7e	-0.5253066
169	0xbd4054a2	-0.046955712
170	0xbe8f15de	-0.2794637
171	0xbd0b793b	-0.03405116
172	0xbe82f438	-0.2557695
173	0xbdff9b85	-0.12480835
174	0xbe4552a5	-0.19269808
175	0xbe37bcc7	-0.17943107
176	0xbc008c80	-0.007845998
177	0xbcfe803b	-0.031067004
178	0xbe902774	-0.281551
179	0xbe48cf14	-0.19610244
180	0xbe15a897	-0.14615093
181	0xbd77959f	-0.060445424
182	0x3d61bc2d	0.0551111
183	0xbdacf056	-0.08444278
184	0xbdd09d1f	-0.101862185
185	0xbe2c73bf	-0.16841029
186	0xbde513c1	-0.111854084
187	0xbdfedc18	-0.12444323
188	0x3e3f3400	0.1867218
189	0x3cea96ba	0.028636325
190	0x3d141089	0.03614858
191	0x3d5487f8	0.051887482
192	0xbe11053f	-0.14162157
193	0xbe0b7a9e	-0.13620993
194	0xbe0b4984	-0.13602263
195	0xbe2a2972	-0.16617373
196	0xbd95dce7	-0.073175244
197	0xbd741b76	-0.0595965
198	0xbd9c3aec	-0.07628426
199	0x3b2661fa	0.0025387988
200	0xbd6d2d65	-0.05790462
201	0x3da9fd08	0.08300215
202	0x3ef39345	0.47573295
203	0xbe5aa965	-0.21353681
204	0xbc2a2fc9	-0.010387369
205	0xbaaa7092	-0.0013003519
206	0xbc035db0	-0.008017942
207	0x3d63df3e	0.055632822
208	0xbdb62dd4	-0.0889546
209	0x3cfbf09d	0.030754382
210	0xbf1fcc7f	-0.6242141
211	0x3d22341b	0.039600473
212	0xbe52252a	-0.2052199
213	0xbd36f625	-0.044668335
214	0xbdd4dd57	-0.1039378
215	0x3c9d6d2d	0.019217098
216	0x3d567a17	0.052362528
217	0xbde9380b	-0.113876425
218	0xbefc31bd	-0.49256697
219	0xbd49702e	-0.04917925
220	0xbd14ceae	-0.036329918
221	0xbd49c330	-0.04925841
222	0x3cacb375	0.021081666
223	0xbc968ec2	-0.01837862
224	0xbd3cfc9e	-0.046139352
225	0xbdab028d	-0.08350096
226	0xbef56254	-0.4792658
227	0xbdd9a3a2	-0.106269136
228	0xbcafacfe	-0.021444794
229	0xbd5e59a3	-0.054284703
230	0x3ccba749	0.024860041
231	0x3d264a6e	0.040598325
232	0x3e832db1	0.25620797
233	0xbe2cec04	-0.16886908
234	0x3e928395	0.28616014
235	0xbc937ac4	-0.018002875
236	0x3e2fd7d1	0.17172171
237	0xbdea97ad	-0.11454711
238	0x3d41aec3	0.047285806
239	0xbcf419f9	-0.029797541
240	0x3c14105e	0.009037105
241	0x3cc918ea	0.024548013
242	0x3e87b6f0	0.26506758
243	0xbe94fd5a	-0.29099542
244	0x3ec11839	0.37713793
245	0xbd65ad9b	-0.056073766
246	0xbda1d363	-0.07901647
247	0xbe09e79e	-0.13467261
248	0xbde2c89f	-0.11073422
249	0xbe61038a	-0.21974006
250	0xbea5b26f	-0.32362697
251	0xbdb2440f	-0.087043874
252	0xbc6f7b3d	-0.014616785
253	0x3d4c3dcb	0.049863618
254	0xbc9cd3ab	-0.0191439
255	0x3db1e901	0.0868702

model/convolution_3/Conv2D f4 [32, 3, 3, 16]
0	0xbcc33816	-0.023830455
1	0x3ac2017b	0.0014801467
2	0x3cf8e035	0.030380348
3	0xbf085b79	-0.53264576
4	0xbd32d39c	-0.043658838
5	0xbdf6f828	-0.12059051
6	0xbdca8be8	-0.09889966
7	0xbdba07b8	-0.090835035
8	0xbce86580	-0.028368711
9	0x3b2fc879	0.0026822372
10	0xbddf81ce	-0.1091343
11	0x3d24ff22	0.040282376
12	0x3d87eaab	0.06636556
13	0xbcb51578	-0.022104964
14	0xbdb31fec	-0.08746323
15	0xbd46f4ac	-0.04857318
16	0xbc4908d6	-0.012270173
17	0x3df86215	0.12128083
18	0xbc8c16b8	-0.017100677
19	0xbd39c08b	-0.04534964
20	0xbd96e758	-0.07368344
21	0xbdd77714	-0.10520759
22	0x3ebadc1e	0.3649606
23	0xbd666ba5	-0.056255
24	0xbcb73657	-0.022364778
25	0xbcebf035	-0.028801063
26	0x3d83d5cd	0.06437264
27	0xbc910598	-0.017702863
28	0x3d2e635d	0.04257523
29	0x3e1daa78	0.1539706
30	0xbdf2cede	-0.11855863
31	0xbe0840f0	-0.13306022
32	0xbd158766	-0.03650608
33	0x3de99752	0.11405815
34	0xbdf8c228	-0.12146407
35	0xbebefdaa	-0.37302905
36	0xbde1f029	-0.11032135
37	0x3dac75da	0.08420916
38	0x3da23068	0.07919389
39	0xbaa3ed5c	-0.0012506652
40	0xbe24d011	-0.16094996
41	0xbbc50fe7	-0.0060138586
42	0x3de9b2ae	0.114110336
43	0x3d0b0160	0.03393686
44	0x3d14cc68	0.03632775
45	0x3d4647fc	0.048408493
46	0x3d8d1843	0.06889393
47	0x3d969038	0.07351726
48	0xbd81b276	-0.06332867
49	0x3d6c1725	0.05763926
50	0x3e28a06c	0.16467446
51	0xbdc56676	-0.096386835
52	0x3d9ee007	0.077575736
53	0x3d0e923e	0.034807436
54	0x3db0a46b	0.0862511
55	0xbdd800eb	-0.1054705
56	0xbdf72fa6	-0.12069635
57	0xbd496d40	-0.049176455
58	0xbe1141fd	-0.14185329
59	0x3cfc9f38	0.03083764
60	0x3d8ba2af	0.06818139
61	0xbda6217a	-0.08111854
62	0xbda7397a	-0.0816526
63	0x3bb6af48	0.0055750944
64	0x3df0985a	0.11747809
65	0x3d068933	0.032845687
66	0xbdb35c04	-0.08757785
67	0xbea2fb54	-0.31832373
68	0x3e5083e2	0.2036281
69	0x3d34ba6b	0.044123095
70	0x3e930e1a	0.28721696
71	0xbca0fe99	-0.019652652
72	0xbdc2a95a	-0.095049575
73	0x3c5c97b1	0.0134639
74	0x3b51295a	0.0031915517
75	0x3cc5836e	0.024110522
76	0xbd49c00d	-0.04925542
77	0xbdae4693	-0.08509555
78	0xbe1117f7	-0.14169298
79	0x3e05505f	0.1301894
80	0x3d78e0a4	0.06076111
81	0xbdf0d53a	-0.1175942
82	0xbc921768	-0.017833427
83	0xbe0f71a0	-0.14008188
84	0x3e0fbf1a	0.14037743
85	0x3c04ce6d	0.008105856
86	0xbe0e1404	-0.13874823
87	0xbe40f5bb	-0.18843739
88	0x3da91e7d	0.08257768
89	0xbd92043e	-0.071297154
90	0x3c85c79f	0.016330538
91	0x3cd0e2c3	0.025498753
92	0x3da52ade	0.08064817
93	0x3d95b94c	0.07310733
94	0x3d60f62e	0.054922275
95	0x3deb48de	0.11488508
96	0xbdb2df88	-0.087340415
97	0x3e02ae02	0.12761691
98	0x3d0515a6	0.03249135
99	0xbe4318c9	-0.19052424
100	0x3dc9d341	0.098547466
101	0xbd8c3d54	-0.06847635
102	0xbe437134	-0.19086152
103	0xbdf47f31	-0.11938322
104	0xbe33c9b6	-0.17557415
105	0xbd4ebd97	-0.050473776
106	0x3d74b5fc	0.059743866
107	0x3dc8180f	0.09770214
108	0xbd26b115	-0.040696222
109	0x3d66b64f	0.056326207
110	0xbd9f5d45	-0.077814616
111	0xbc389679	-0.011266344
112	0xbbc0f2da	-0.005888325
113	0xbc91d471	-0.017801495
114	0xbd45b7ad	-0.04827087
115	0xbe2c973d	-0.16854568
116	0x3d3927c6	0.045203947
117	0xbd82e90e	-0.06392108
118	0x3eaceeeb	0.3377603
119	0xbe239bd8	-0.15977418
120	0xbdc41a8c	-0.09575376
121	0x3b0bd2eb	0.0021335434
122	0xbc8b1ac9	-0.016980546
123	0x3d36ae4d	0.04459982
124	0x3df3e641	0.11909152
125	0xbdb28c71	-0.08718193
126	0x3dabb45b	0.083840095
127	0x3e0e9a78	0.13926113
128	0xbcb99493	-0.022653854
129	0x3d3bbe5d	0.04583584
130	0xbcecaa86	-0.028889906
131	0xbe35877d	-0.17727466
132	0xbdd4b85e	-0.10386728
133	0x3d5591d7	0.052141037
134	0x3d0d5d89	0.03451303
135	0xbd822ca8	-0.06356174
136	0xbd9cf881	-0.07664586
137	0xbd02f6c3	-0.03197361
138	0x3b99d2af	0.004694305
139	0x3dc8ddbf	0.0980792
140	0x3b2d8311	0.0026475827
141	0xbe0ab752	-0.13546494
142	0xbdbde075	-0.092713274
143	0xbd8f00fd	-0.069826104
144	0x3cf1381e	0.029445704
145	0x3ee95d1d	0.45578852
146	0xbdde68ba	-0.10859819
147	0x3da91007	0.0825501
148	0x3e0bf975	0.13669379
149	0x3d15bf6e	0.036559515
150	0xbeabdca5	-0.33566776
151	0x3e8c657b	0.27421173
152	0xbf416561	-0.75545317
153	0x3b5efdd9	0.0034025817
154	0x3dc93681	0.09824849
155	0x3ec5a305	0.38600937
156	0x3db5cb6f	0.088766925
157	0x3df0873e	0.117445454
158	0x3e37687a	0.17910948
159	0xbf01b0fe	-0.50660694
160	0x3e56c894	0.20974952
161	0x3e388c97	0.18022381
162	0xbd96d1f7	-0.07364266
163	0xbd3bbea6	-0.045836113
164	0xbdaee52a	-0.08539803
165	0x3e1505d9	0.14553012
166	0xbe6af7ef	-0.22946142
167	0xbe95af8f	-0.29235503
168	0xbec56050	-0.38550043
169	0xbf0f1c9d	-0.55903035
170	0x3dcc5d82	0.09978773
171	0x3ec26323	0.3796626
172	0xbd4b4b4c	-0.049632356
173	0x3d0b0f9a	0.033950426
174	0xbdf59b65	-0.1199253
175	0xbe010c3c	-0.12602323
176	0xbd436532	-0.04770393
177	0x3e930762	0.2871657
178	0xbe593954	-0.21213275
179	0xbd7cdac1	-0.061732057
180	0xbdfb6f79	-0.12277121
181	0x3d96742b	0.07346376
182	0xbe156dc0	-0.14592648
183	0x3e82e0ca	0.25562125
184	0x3ef52a6b	0.47883925
185	0xbe80462a	-0.2505353
186	0x3df774e8	0.12082845
187	0xbdfbe978	-0.1230039
188	0x3d3ed444	0.04658915
189	0xbdb35b34	-0.0875763
190	0x3dcb5a54	0.09929338
191	0xbe4a35f6	-0.19747147
192	0x3e7a36b5	0.24434932
193	0x3cbdab2d	0.023152912
194	0x3e9569e2	0.29182345
195	0x3d055263	0.032549273
196	0x3e324313	0.174084
197	0x3e989614	0.29802
198	0xbeb77175	-0.35828748
199	0x3ea30a40	0.31843758
200	0x3eb7c51b	0.35892567
201	0x3e21fb2b	0.15818469
202	0xbc95e3a5	-0.018297026
203	0xbea5a12b	-0.32349524
204	0x3c98942b	0.01862534
205	0x3db7d87b	0.08976837
206	0x3e13f632	0.14449385
207	0xbe920bca	-0.2852462
208	0x3d5f0907	0.05445197
209	0xbe3e7b2c	-0.18601674
210	0xbe2f861d	-0.17141004
211	0x3e881121	0.26575568
212	0xbdd23a6d	-0.1026505
213	0xbcf21284	-0.029549845
214	0x3cf2b0e5	0.029625366
215	0xbe53fd1a	-0.2070202
216	0xbdbc4b02	-0.09193994
217	0xbe7803e3	-0.24220233
218	0x3df1899f	0.11793827
219	0xbdc71018	-0.097198665
220	0xbc1b0c2d	-0.009463352
221	0x3d9f0e4e	0.077664
222	0xbe3555b5	-0.17708476
223	0xbe24d9f0	-0.16098762
224	0x3dadb8b9	0.08482499
225	0x3e33f68b	0.17574517
226	0x3e0f10f6	0.13971314
227	0xbcb0a1a9	-0.02156146
228	0x3cc07bab	0.02349647
229	0x3d1a0a45	0.03760745
230	0x3dbdbdf1	0.09264744
231	0xbd0b3d46	-0.03399398
232	0x3e0dc4b4	0.13844568
233	0x3b05e996	0.0020433418
234	0xb99c70dc	-0.00029838725
235	0x3e528d34	0.20561677
236	0x3d186967	0.037209895
237	0xbd24bdd7	-0.040220108
238	0x3dc52b53	0.09627404
239	0xbe012253	-0.1261075
240	0xbd102e4f	-0.035200413
241	0x3ecb8de7	0.397567
242	0x3ea3762e	0.319261
243	0x3d56f3b0	0.052478492
244	0x3e2ad9ff	0.16684721
245	0xbeaa231a	-0.33229905
246	0xbd1f6a83	-0.038919937
247	0xbf1e01ca	-0.6172148
248	0xbed66523	-0.41874036
249	0xbe6496ec	-0.22323197
250	0xbe7131f3	-0.2355421
251	0x3c22d41d	0.009938267
252	0x3e1a118a	0.15045753
253	0x3de83839	0.113388486
254	0x3ea71f7a	0.32641202
255	0x3e8b7160	0.27234936

model/convolution_4/Conv2D f4 [32, 3, 3, 32]
0	0x3d740b8a	0.059581317
1	0xbd020d62	-0.031751044
2	0xbc28589c	-0.010275032
3	0x3c444c31	0.011981056
4	0xbc87515f	-0.016518293
5	0x3cfedfda	0.0311126
6	0x3c134017	0.008987448
7	0xbda27a41	-0.07933474
8	0xbcabea0b	-0.020985624
9	0x3d0d4f9d	0.034499753
10	0x3c2e16fa	0.010625595
11	0x3bceb146	0.0063077537
12	0xbd45ddb7	-0.048307147
13	0xbe0464f8	-0.12929142
14	0xbc83b75f	-0.01607865
15	0x3ccfd52b	0.025370201
16	0xbe003dbc	-0.1252355
17	0xbd8c2c2a	-0.06844361
18	0x3ce2684f	0.027637629
19	0xbc2e0614	-0.010621566
20	0xbbe581e9	-0.007004012
21	0xbdc5a9ff	-0.09651565
22	0x3c20afa2	0.009807499
23	0xbd6d6097	-0.057953443
24	0xbd8c8327	-0.06860953
25	0xbd8766ba	-0.066113904
26	0x3d034a1b	0.032053094
27	0xbe035ea4	-0.12829071
28	0xbd3e8b64	-0.046519652
29	0xbe10df72	-0.14147738
30	0xbe0873c1	-0.13325407
31	0x3d28270f	0.041052874
32	0xbd9bdec0	-0.076108456
33	0xbdbc3cb1	-0.091912635
34	0xbe055eb9	-0.13024415
35	0xbbc7d004	-0.0060977954
36	0xbe0ed660	-0.13948965
37	0xbca21766	-0.019786548
38	0xbd309f86	-0.043120883
39	0xbbaf195b	-0.005343599
40	0xbe069f99	-0.13146819
41	0xbd5b5b2e	-0.053553753
42	0xbd973829	-0.073837586
43	0xbd0bd4fc	-0.034138665
44	0x3d9abe82	0.07555868
45	0xbe177a11	-0.14792658
46	0xbab272bb	-0.0013614515
47	0x3c9138f8	0.01772736
48	0xbe094ebd	-0.13408943
49	0xbd982397	-0.07428663
50	0xbdb5c4dd	-0.08875439
51	0xbb545712	-0.003240053
52	0xbce2dd85	-0.02769352
53	0x3d33a3d1	0.0438574
54	0x3d529c43	0.051418554
55	0xbd0bbc29	-0.03411499
56	0xbd38122b	-0.0449392
57	0x3c3b9f35	0.011451532
58	0xbda5b2be	-0.08090733
59	0x3d5d1751	0.053977314
60	0xbde55db4	-0.11199513
61	0x3d979ac8	0.07402569
62	0x3cb8ae1e	0.022543963
63	0xbd87b7f3	-0.066268824
64	0xbdbfb5ca	-0.093608454
65	0xbe3438df	-0.1759982
66	0xbb9f9ae2	-0.0048707584
67	0xbd9f7b2d	-0.07787166
68	0x3d990548	0.074717104
69	0xbdf69d4c	-0.12041721
70	0xbdf1f149	-0.118135996
71	0xbd44ed85	-0.04807808
72	0x3d09c298	0.033632845
73	0xbdec7cb3	-0.11547222
74	0xbd49060b	-0.04907803
75	0xbd14e4fc	-0.03635119
76	0xbdd9411c	-0.10608122
77	0x3d23cda3	0.039991032
78	0xbd6930b1	-0.0569312
79	0x3cec85e0	0.02887243
80	0x3d75b9e2	0.059991725
81	0xbde51cf6	-0.111871645
82	0xbe03a317	-0.12855183
83	0xbe48b583	-0.19600491
84	0xbe03df65	-0.12878187
85	0xbe1817ae	-0.14852783
86	0x3ac5b5a2	0.0015084038
87	0xbe07b7bc	-0.13253683
88	0x3da8441b	0.08216115
89	0xbe0dc91a	-0.13846245
90	0x3befcb0b	0.007317906
91	0xbd4bc9a6	-0.049752854
92	0xbd1e8cc4	-0.038708463
93	0xbcf5a1aa	-0.029984314
94	0xbdf7b6e1	-0.12095428
95	0xbdceae83	-0.10091879
96	0xbdf6fe1d	-0.12060187
97	0x3bca3a2b	0.006171485
98	0xbd8eef83	-0.06979277
99	0xbd9b291f	-0.075762026
100	0x3becce0a	0.00722671
101	0xbd95e5c8	-0.07319218
102	0x3d2448b6	0.040108405
103	0x3d0cf8f7	0.03441712
104	0xbd0e4628	-0.034734875
105	0xbd8e63b0	-0.06952608
106	0x3d4a0fa0	0.049331307
107	0xbdff7761	-0.124739416
108	0xbd972943	-0.07380917
109	0xbdbd32f7	-0.092382364
110	0xbd041c1d	-0.032253373
111	0xbe04b71a	-0.12960473
112	0xbdd6f99f	-0.1049683
113	0xbd6d44c6	-0.057926916
114	0xbd0076e8	-0.031363398
115	0xbdffa961	-0.12483478
116	0xbdc566d3	-0.09638753
117	0x3d1c6858	0.038185447
118	0xbd88b27d	-0.06674669
119	0xbdae8f62	-0.08523442
120	0xbdbd023e	-0.09228943
121	0xbdd8eb91	-0.10591806
122	0xbe09911b	-0.1343426
123	0xbdc49d09	-0.096002646
124	0xbc9ff623	-0.019526547
125	0x3d349a08	0.04409221
126	0x3c0524d9	0.008126461
127	0x3d4cf1d9	0.05003533
128	0xbdeade86	-0.11468224
129	0xbe00e004	-0.12585455
130	0xbda6480d	-0.08119211
131	0xbdd1b989	-0.10240466
132	0x3cccf903	0.025021082
133	0xbd5af9a9	-0.05346075
134	0xbdb2892e	-0.08717571
135	0xbbb4856f	-0.0055090706
136	0x3b36f51b	0.002791709
137	0xba7f90bb	-0.00097490445
138	0xbdf5c0b0	-0.11999643
139	0xbe8e3474	-0.27774394
140	0xbcd76b58	-0.026296303
141	0x3c83149f	0.016001044
142	0x3d4c6493	0.049900603
143	0x3a3ec98b	0.0007277957
144	0x3d5aea10	0.053445876
145	0xbd14bf22	-0.03631509
146	0xbcdebbe7	-0.027189208
147	0x3baea28e	0.0053294366
148	0xbdaf9215	-0.08572785
149	0x3ca83fb4	0.020538189
150	0x3c83fece	0.016112711
151	0x3cc7c4a9	0.024385767
152	0xbde4f354	-0.11179224
153	0xbdea91c2	-0.11453582
154	0x3c799941	0.0152342925
155	0xbd92c8b2	-0.07167186
156	0xbe1057af	-0.14095949
157	0x3d0688c0	0.03284526
158	0x3d138031	0.036010925
159	0x3d3c7ba9	0.04601637
160	0xbd9f8a54	-0.07790056
161	0xbd95f9c6	-0.07323031
162	0x3c57eb0d	0.013178599
163	0xbccaabb1	-0.024740072
164	0x3c1eea12	0.009699361
165	0xbd8452ce	-0.06461106
166	0xbd88070b	-0.06641968
167	0x3c2ab905	0.010420089
168	0x3cd6cff1	0.026222201
169	0xbde4d5e4	-0.11173609
170	0x3d20f37d	0.03929471
171	0x3d0a1bc3	0.033717882
172	0xbd1ae2b7	-0.03781387
173	0xbddc46a7	-0.10755663
174	0x3b909309	0.004412059
175	0xbd34c1c1	-0.04413009
176	0xbd7b5531	-0.06136054
177	0xbd37d083	-0.044876587
178	0xbca95c14	-0.02067379
179	0xbd31ccaf	-0.043408092
180	0xbdc94c1a	-0.09828968
181	0xbe8b2453	-0.2717615
182	0xbdf2e056	-0.11859195
183	0xbd992465	-0.07477645
184	0xbd5e82a6	-0.054323815
185	0xbd9378c5	-0.07200769
186	0xbd1eab93	-0.038737845
187	0x3d661573	0.0561728
188	0xbdb99b6e	-0.09062849
189	0xbd82f70f	-0.06394779
190	0x3cbfa19e	0.023392495
191	0x3bd2e3b7	0.006435837
192	0x3c844450	0.016145855
193	0x3d4ed846	0.050499223
194	0xbd6dc267	-0.058046725
195	0xbd4082f5	-0.04699989
196	0xbd7e7efb	-0.062132817
197	0x3b873a37	0.004126813
198	0xbd05acce	-0.032635503
199	0xbd6b8935	-0.057503898
200	0xbdcf7bb9	-0.1013102
201	0xbc6a49e7	-0.014299846
202	0xbda9d62c	-0.08292803
203	0xbd8b0476	-0.0678796
204	0xbc0231f9	-0.007946485
205	0x3c4a73a1	0.01235667
206	0xbd94ba7d	-0.07262132
207	0xbd27cb49	-0.040965352
208	0x3d066fef	0.032821592
209	0xbc7b19d2	-0.01532598
210	0x3d465b57	0.048426952
211	0xbd6841ee	-0.0567035
212	0xbd4b832c	-0.049685642
213	0x3c237fec	0.009979229
214	0xbd7fc71c	-0.062445745
215	0xbdb7f8e1	-0.08983017
216	0xbdfa6b1a	-0.12227459
217	0x3c5c7ccf	0.013457491
218	0x3d6e314b	0.05815248
219	0x3d09cbe1	0.0336417
220	0xbcbf01ba	-0.023316253
221	0xbdb36d64	-0.08761099
222	0x3d4ff444	0.05077006
223	0x3b96ca32	0.0046017403
224	0xbe0d9ea4	-0.13830048
225	0xbdb0dac8	-0.08635479
226	0xbdfb6e11	-0.12276853
227	0x3c6cfac4	0.014464084
228	0x3d4c12a2	0.049822457
229	0xbd3f0b6a	-0.046641745
230	0xbb83a700	-0.0040177107
231	0xbde5c106	-0.11218457
232	0xbdca61bd	-0.09881923
233	0xbe0309c1	-0.1279669
234	0x3ca6a5cb	0.020342728
235	0xbcbc6710	-0.022998363
236	0x3cc5f122	0.024162833
237	0xbda0330a	-0.07822235
238	0x3d1aebb3	0.037822437
239	0xbdf8b285	-0.12143425
240	0xbcfac422	-0.030611102
241	0x3c9c82e5	0.019105384
242	0x3b20db2a	0.0024544694
243	0x3ce5fc4b	0.028074404
244	0xbcc5bfe1	-0.024139347
245	0x3c9bb119	0.019005345
246	0xbcd28df9	-0.025702463
247	0xbd6c6e57	-0.057722416
248	0xbd6a36a3	-0.057181012
249	0x3d16b133	0.036790084
250	0x3d4b4a15	0.049631197
251	0xbde0251a	-0.109445766
252	0xbd63bd7c	-0.05560063
253	0xbd863ffe	-0.06555174
254	0xbdc40a6c	-0.095723
255	0x3b8d1ca5	0.004306393

model/convolition_5/Conv2D f4 [64, 3, 3, 32]
0	0x3dfe03a1	0.12403036
1	0xbd991974	-0.07475558
2	0xbdabfabe	-0.08397435
3	0xbd9643eb	-0.07337173
4	0xbd158244	-0.036501184
5	0xbdb8ed94	-0.090296894
6	0xbe41655e	-0.18886325
7	0x3c1b5d96	0.009482762
8	0xbdacf4cf	-0.08445131
9	0xbcd702cf	-0.026246456
10	0x3d0862c1	0.033297304
11	0x3d37169d	0.0446993
12	0xbc91bb06	-0.017789375
13	0x3d18769a	0.037222482
14	0x3cdcc65a	0.02695005
15	0xbd2b54db	-0.04182897
16	0xbd8d0667	-0.06885987
17	0xbcb18b55	-0.021672884
18	0xbe79ada0	-0.24382639
19	0x3c6cdd9a	0.014457131
20	0xbd02f6fb	-0.03197382
21	0x3d7e7234	0.06212063
22	0x3da0994b	0.07841738
23	0x3c439b6f	0.011938914
24	0x3dd44b87	0.10365968
25	0x3d8d5294	0.06900516
26	0x3d565d4c	0.05233507
27	0x3d7fcc46	0.06245067
28	0xbd91b414	-0.07114425
29	0xbd484574	-0.04889436
30	0x3d5525eb	0.052038115
31	0x3d80e45f	0.06293558
32	0xbbe39e2f	-0.006946347
33	0xbcb8cb86	-0.022557985
34	0xbd9fb102	-0.077974334
35	0xbde716f3	-0.11283674
36	0xbdc34b49	-0.09535844
37	0xbd35365b	-0.04424129
38	0xbe96de4d	-0.29466477
39	0xbdbbc5a1	-0.09168554
40	0xbd6fcc27	-0.058544304
41	0xbcb5a3a0	-0.022172749
42	0x3ae1e944	0.0017235656
43	0x3dc145ca	0.09437139
44	0xbc1364cc	-0.0089962
45	0xbdd69163	-0.10476949
46	0xbd95cdf7	-0.07314675
47	0x3db1b52b	0.08677133
48	0xbe3036f5	-0.17208464
49	0xbba795df	-0.0051143016
50	0xbe0bf2d2	-0.13666847
51	0x3dc28b71	0.094992526
52	0xbdd99a50	-0.10625136
53	0xbbd044c8	-0.0063558556
54	0x3c4e9d10	0.012610689
55	0xbdbad078	-0.091217935
56	0xbd44e1ac	-0.04806678
57	0x3d38dd1d	0.045132745
58	0x3b65524a	0.0034991675
59	0xbc86c9b6	-0.016453605
60	0xbd2b2e2a	-0.041792072
61	0xbd9caaca	-0.07649763
62	0xbdaa9724	-0.08329609
63	0xbd13f161	-0.03611887
64	0xbca62501	-0.020281317
65	0xbd2e82e5	-0.0426053
66	0xbdb05bcf	-0.08611261
67	0xbdbfbfb3	-0.093627356
68	0xbc4bd98f	-0.012442007
69	0xbc33bf53	-0.010970908
70	0x3d1115b4	0.03542109
71	0xbdc72faa	-0.09725888
72	0xbdfdfb47	-0.12401443
73	0xbd044868	-0.032295614
74	0x3cf3b19a	0.029747773
75	0x3dbda6d3	0.09260335
76	0x3c39c706	0.011338955
77	0x3cbdf193	0.02318648
78	0xbd4fb331	-0.050708
79	0xbd746ac3	-0.05967213
80	0x3d70896e	0.058724813
81	0x3d550f8a	0.052016772
82	0xbd2a14b6	-0.041523658
83	0x3dcaa8c2	0.09895469
84	0xbd5f3789	-0.05449632
85	0xbb8ad0d8	-0.004236322
86	0xbccb9614	-0.024851836
87	0xbc8d237d	-0.017228836
88	0xbb37af4b	-0.0028028067
89	0xbd54af0e	-0.051924758
90	0x3d0fcce1	0.035107497
91	0xbd760e29	-0.060072098
92	0xbe021595	-0.12703545
93	0xbc12e14e	-0.00896485
94	0x3d0f50b2	0.034989066
95	0xbd786e8f	-0.060652312
96	0x3d3da904	0.046303764
97	0x3d7b3f8e	0.061339907
98	0xbd2969fb	-0.041360836
99	0x3d15d617	0.036581125
100	0xbe2aaa70	-0.16666579
101	0x3c1c23bd	0.009530005
102	0x3e624406	0.22096261
103	0xbdca741f	-0.098854296
104	0xbe13da98	-0.14438856
105	0xbc7b2af4	-0.015330065
106	0x3d8ebace	0.06969224
107	0xbdc7f992	-0.09764399
108	0xbc424d18	-0.011859201
109	0x3d3a8e19	0.04554567
110	0xbddd6c04	-0.10811618
111	0x3d984372	0.07434739
112	0xbdaa3ce2	-0.08312394
113	0xbcf6d543	-0.030130988
114	0xbe049ed1	-0.12951209
115	0xbd50e4ab	-0.050999325
116	0xbd559070	-0.0521397
117	0x3d850f55	0.06497065
118	0xbd08b5aa	-0.033376373
119	0xbe5632e3	-0.20917849
120	0x3d49607a	0.049164273
121	0xbcb0e02b	-0.021591267
122	0xbce29d5a	-0.027662922
123	0x3c962142	0.018326405
124	0xbcc70715	-0.02429537
125	0x3befdb84	0.0073198695
126	0xbd2b85a2	-0.04187549
127	0x3dd1556b	0.1022137
128	0x3c47b89b	0.0121900095
129	0xbd8affbb	-0.06787058
130	0x3d1f6973	0.038918924
131	0xbdc5e181	-0.09662152
132	0xbdbc3a81	-0.09190846
133	0x3d3be5d4	0.045873478
134	0xbc51cc1f	-0.012805014
135	0xbdb4003a	-0.08789106
136	0x3c2a280c	0.0103855245
137	0xbd8498db	-0.06474467
138	0x3d27b4de	0.040943973
139	0xbdcc8e9c	-0.09988138
140	0x3c254a9e	0.010088591
141	0xbdb3b564	-0.08774832
142	0xbcce1dcd	-0.025160694
143	0xbd98c03c	-0.07458541
144	0xbdb7f235	-0.08981744
145	0xbd9595e2	-0.073039785
146	0xbdf1fdd4	-0.11815992
147	0x3d94cecc	0.07266006
148	0xbcb2b6a8	-0.021815613
149	0xbc5b66ee	-0.01339124
150	0x3d15af87	0.03654435
151	0x3d01ce23	0.031690728
152	0x3c939b77	0.018018467
153	0xbeb2eae2	-0.34944826
154	0x3c6d5bf6	0.014487257
155	0xbcfb94d2	-0.030710611
156	0xbe942390	-0.28933382
157	0xbcf35cd6	-0.029707354
158	0xbd11a25f	-0.03555524
159	0xbddd53e1	-0.10807014
160	0xbdce109e	-0.10061763
161	0xbecb97a7	-0.3976414
162	0x3cb02ce0	0.021505773
163	0xbe04cfe4	-0.12969929
164	0x3d8359b0	0.06413591
165	0xbd6b8a47	-0.05750492
166	0x3daf87ee	0.085708484
167	0xbe149f4d	-0.14513893
168	0xbd920f5d	-0.071318366
169	0x3d56748b	0.052357238
170	0xbcc4cb2e	-0.024022665
171	0xbcd5e195	-0.026108542
172	0x3cb344df	0.021883426
173	0xbdcc4e18	-0.09975833
174	0xbcf43a7f	-0.02981305
175	0xbd7a4ceb	-0.06110851
176	0xbe9488d1	-0.29010633
177	0xbc5a848b	-0.013337265
178	0xbe0ff6e0	-0.14059019
179	0xbc204157	-0.009781203
180	0x3c7a1e76	0.0152660515
181	0xbd3e61f7	-0.046480145
182	0x3c8bea68	0.017079547
183	0x3d8c46d9	0.068494506
184	0xbd12c365	-0.035830874
185	0xbe047108	-0.12933743
186	0xbda50df1	-0.080593
187	0x3d2227ec	0.039588854
188	0xbe91c0bd	-0.2846736
189	0x3b98e491	0.004665919
190	0x3ca420e1	0.02003521
191	0x3d6878c0	0.05675578
192	0xbdd341c3	-0.103152774
193	0xbee21c28	-0.44162107
194	0x3dc69ed0	0.0969826
195	0xbdad4b32	-0.08461608
196	0x3e2b340b	0.16719072
197	0xbd2d90bd	-0.04237436
198	0xbd18ee87	-0.037336852
199	0xbcd97e73	-0.026549553
200	0xbcd209a6	-0.025639366
201	0x3dd8a688	0.10578638
202	0x3c3d06a5	0.011537229
203	0xbdae54cd	-0.08512268
204	0x3d4ac9b8	0.04950878
205	0x3cbbe9b7	0.022938592
206	0x3c877f32	0.016540144
207	0xba05a664	-0.00050983415
208	0xbd8ada22	-0.06779887
209	0x3d89814c	0.067141145
210	0xbdec680e	-0.11543284
211	0x3d8e588b	0.06950482
212	0xbdf3c291	-0.11902345
213	0x3db2c662	0.08729245
214	0x3d0f4e84	0.034986988
215	0x3dd3564e	0.10319196
216	0x3dc91386	0.09818177
217	0x3e4f3433	0.20234756
218	0xbe2c526c	-0.16828316
219	0xbd5fce7c	-0.05464028
220	0x3d1fe0b1	0.03903264
221	0xbdc365c6	-0.09540896
222	0xbdb20ea4	-0.08694199
223	0x3dae61ce	0.085147485
224	0xbcc77ae7	-0.024350597
225	0xbeb7b1a5	-0.3587772
226	0x3f307bff	0.68939203
227	0xbcc22166	-0.023697566
228	0x3ebba8ab	0.3665212
229	0x3d26b0be	0.0406959
230	0xbe304594	-0.17214042
231	0xbe162cb1	-0.14665486
232	0xbdce0f2c	-0.100614876
233	0x3d9dddfe	0.07708357
234	0x3d236ec6	0.039900564
235	0x3d1968bd	0.0374534
236	0x3d03f51e	0.032216184
237	0x3d0e58cc	0.034752652
238	0x3d0c5aec	0.034266397
239	0xbda6e111	-0.08148397
240	0xbe0450bc	-0.12921423
241	0xbd87ca7a	-0.06630416
242	0xbe28a350	-0.16468549
243	0x3d5aa1ef	0.05337709
244	0x3d0b0701	0.033942226
245	0x3d886980	0.066607475
246	0x3d9ec78d	0.07752905
247	0xbe12bacc	-0.1432907
248	0x3e10aa0f	0.14127372
249	0x3d0d4a17	0.034494486
250	0xbdfbba36	-0.12291376
251	0xbd6a7606	-0.057241462
252	0xbce62265	-0.028092572
253	0xbda7914f	-0.08182012
254	0xbc9bb54a	-0.019007344
255	0xbe4f23e9	-0.20228542
